wwwwwww /home5/satti/HOPE-master9-Zeros-cam4/datasets/ho/
Train files loaded
Validation files loaded
Model Training on GPU 0
Adding hand generator .. 
Loading Fixed Adjacency Matrix ..
Loading Fixed Adjacency Matrix ..
HopeNet is loaded
HopeNet(
  (resnet): ResNet(
    (conv1): Conv2d(3, 64, kernel_size=(7, 7), stride=(2, 2), padding=(3, 3), bias=False)
    (bn1): BatchNorm2d(64, eps=1e-05, momentum=0.1, affine=True, track_running_stats=True)
    (relu): ReLU(inplace=True)
    (maxpool): MaxPool2d(kernel_size=3, stride=2, padding=1, dilation=1, ceil_mode=False)
    (layer1): Sequential(
      (0): Bottleneck(
        (conv1): Conv2d(64, 64, kernel_size=(1, 1), stride=(1, 1), bias=False)
        (bn1): BatchNorm2d(64, eps=1e-05, momentum=0.1, affine=True, track_running_stats=True)
        (conv2): Conv2d(64, 64, kernel_size=(3, 3), stride=(1, 1), padding=(1, 1), bias=False)
        (bn2): BatchNorm2d(64, eps=1e-05, momentum=0.1, affine=True, track_running_stats=True)
        (conv3): Conv2d(64, 256, kernel_size=(1, 1), stride=(1, 1), bias=False)
        (bn3): BatchNorm2d(256, eps=1e-05, momentum=0.1, affine=True, track_running_stats=True)
        (relu): ReLU(inplace=True)
        (downsample): Sequential(
          (0): Conv2d(64, 256, kernel_size=(1, 1), stride=(1, 1), bias=False)
          (1): BatchNorm2d(256, eps=1e-05, momentum=0.1, affine=True, track_running_stats=True)
        )
      )
      (1): Bottleneck(
        (conv1): Conv2d(256, 64, kernel_size=(1, 1), stride=(1, 1), bias=False)
        (bn1): BatchNorm2d(64, eps=1e-05, momentum=0.1, affine=True, track_running_stats=True)
        (conv2): Conv2d(64, 64, kernel_size=(3, 3), stride=(1, 1), padding=(1, 1), bias=False)
        (bn2): BatchNorm2d(64, eps=1e-05, momentum=0.1, affine=True, track_running_stats=True)
        (conv3): Conv2d(64, 256, kernel_size=(1, 1), stride=(1, 1), bias=False)
        (bn3): BatchNorm2d(256, eps=1e-05, momentum=0.1, affine=True, track_running_stats=True)
        (relu): ReLU(inplace=True)
      )
      (2): Bottleneck(
        (conv1): Conv2d(256, 64, kernel_size=(1, 1), stride=(1, 1), bias=False)
        (bn1): BatchNorm2d(64, eps=1e-05, momentum=0.1, affine=True, track_running_stats=True)
        (conv2): Conv2d(64, 64, kernel_size=(3, 3), stride=(1, 1), padding=(1, 1), bias=False)
        (bn2): BatchNorm2d(64, eps=1e-05, momentum=0.1, affine=True, track_running_stats=True)
        (conv3): Conv2d(64, 256, kernel_size=(1, 1), stride=(1, 1), bias=False)
        (bn3): BatchNorm2d(256, eps=1e-05, momentum=0.1, affine=True, track_running_stats=True)
        (relu): ReLU(inplace=True)
      )
    )
    (layer2): Sequential(
      (0): Bottleneck(
        (conv1): Conv2d(256, 128, kernel_size=(1, 1), stride=(1, 1), bias=False)
        (bn1): BatchNorm2d(128, eps=1e-05, momentum=0.1, affine=True, track_running_stats=True)
        (conv2): Conv2d(128, 128, kernel_size=(3, 3), stride=(2, 2), padding=(1, 1), bias=False)
        (bn2): BatchNorm2d(128, eps=1e-05, momentum=0.1, affine=True, track_running_stats=True)
        (conv3): Conv2d(128, 512, kernel_size=(1, 1), stride=(1, 1), bias=False)
        (bn3): BatchNorm2d(512, eps=1e-05, momentum=0.1, affine=True, track_running_stats=True)
        (relu): ReLU(inplace=True)
        (downsample): Sequential(
          (0): Conv2d(256, 512, kernel_size=(1, 1), stride=(2, 2), bias=False)
          (1): BatchNorm2d(512, eps=1e-05, momentum=0.1, affine=True, track_running_stats=True)
        )
      )
      (1): Bottleneck(
        (conv1): Conv2d(512, 128, kernel_size=(1, 1), stride=(1, 1), bias=False)
        (bn1): BatchNorm2d(128, eps=1e-05, momentum=0.1, affine=True, track_running_stats=True)
        (conv2): Conv2d(128, 128, kernel_size=(3, 3), stride=(1, 1), padding=(1, 1), bias=False)
        (bn2): BatchNorm2d(128, eps=1e-05, momentum=0.1, affine=True, track_running_stats=True)
        (conv3): Conv2d(128, 512, kernel_size=(1, 1), stride=(1, 1), bias=False)
        (bn3): BatchNorm2d(512, eps=1e-05, momentum=0.1, affine=True, track_running_stats=True)
        (relu): ReLU(inplace=True)
      )
      (2): Bottleneck(
        (conv1): Conv2d(512, 128, kernel_size=(1, 1), stride=(1, 1), bias=False)
        (bn1): BatchNorm2d(128, eps=1e-05, momentum=0.1, affine=True, track_running_stats=True)
        (conv2): Conv2d(128, 128, kernel_size=(3, 3), stride=(1, 1), padding=(1, 1), bias=False)
        (bn2): BatchNorm2d(128, eps=1e-05, momentum=0.1, affine=True, track_running_stats=True)
        (conv3): Conv2d(128, 512, kernel_size=(1, 1), stride=(1, 1), bias=False)
        (bn3): BatchNorm2d(512, eps=1e-05, momentum=0.1, affine=True, track_running_stats=True)
        (relu): ReLU(inplace=True)
      )
      (3): Bottleneck(
        (conv1): Conv2d(512, 128, kernel_size=(1, 1), stride=(1, 1), bias=False)
        (bn1): BatchNorm2d(128, eps=1e-05, momentum=0.1, affine=True, track_running_stats=True)
        (conv2): Conv2d(128, 128, kernel_size=(3, 3), stride=(1, 1), padding=(1, 1), bias=False)
        (bn2): BatchNorm2d(128, eps=1e-05, momentum=0.1, affine=True, track_running_stats=True)
        (conv3): Conv2d(128, 512, kernel_size=(1, 1), stride=(1, 1), bias=False)
        (bn3): BatchNorm2d(512, eps=1e-05, momentum=0.1, affine=True, track_running_stats=True)
        (relu): ReLU(inplace=True)
      )
    )
    (layer3): Sequential(
      (0): Bottleneck(
        (conv1): Conv2d(512, 256, kernel_size=(1, 1), stride=(1, 1), bias=False)
        (bn1): BatchNorm2d(256, eps=1e-05, momentum=0.1, affine=True, track_running_stats=True)
        (conv2): Conv2d(256, 256, kernel_size=(3, 3), stride=(2, 2), padding=(1, 1), bias=False)
        (bn2): BatchNorm2d(256, eps=1e-05, momentum=0.1, affine=True, track_running_stats=True)
        (conv3): Conv2d(256, 1024, kernel_size=(1, 1), stride=(1, 1), bias=False)
        (bn3): BatchNorm2d(1024, eps=1e-05, momentum=0.1, affine=True, track_running_stats=True)
        (relu): ReLU(inplace=True)
        (downsample): Sequential(
          (0): Conv2d(512, 1024, kernel_size=(1, 1), stride=(2, 2), bias=False)
          (1): BatchNorm2d(1024, eps=1e-05, momentum=0.1, affine=True, track_running_stats=True)
        )
      )
      (1): Bottleneck(
        (conv1): Conv2d(1024, 256, kernel_size=(1, 1), stride=(1, 1), bias=False)
        (bn1): BatchNorm2d(256, eps=1e-05, momentum=0.1, affine=True, track_running_stats=True)
        (conv2): Conv2d(256, 256, kernel_size=(3, 3), stride=(1, 1), padding=(1, 1), bias=False)
        (bn2): BatchNorm2d(256, eps=1e-05, momentum=0.1, affine=True, track_running_stats=True)
        (conv3): Conv2d(256, 1024, kernel_size=(1, 1), stride=(1, 1), bias=False)
        (bn3): BatchNorm2d(1024, eps=1e-05, momentum=0.1, affine=True, track_running_stats=True)
        (relu): ReLU(inplace=True)
      )
      (2): Bottleneck(
        (conv1): Conv2d(1024, 256, kernel_size=(1, 1), stride=(1, 1), bias=False)
        (bn1): BatchNorm2d(256, eps=1e-05, momentum=0.1, affine=True, track_running_stats=True)
        (conv2): Conv2d(256, 256, kernel_size=(3, 3), stride=(1, 1), padding=(1, 1), bias=False)
        (bn2): BatchNorm2d(256, eps=1e-05, momentum=0.1, affine=True, track_running_stats=True)
        (conv3): Conv2d(256, 1024, kernel_size=(1, 1), stride=(1, 1), bias=False)
        (bn3): BatchNorm2d(1024, eps=1e-05, momentum=0.1, affine=True, track_running_stats=True)
        (relu): ReLU(inplace=True)
      )
      (3): Bottleneck(
        (conv1): Conv2d(1024, 256, kernel_size=(1, 1), stride=(1, 1), bias=False)
        (bn1): BatchNorm2d(256, eps=1e-05, momentum=0.1, affine=True, track_running_stats=True)
        (conv2): Conv2d(256, 256, kernel_size=(3, 3), stride=(1, 1), padding=(1, 1), bias=False)
        (bn2): BatchNorm2d(256, eps=1e-05, momentum=0.1, affine=True, track_running_stats=True)
        (conv3): Conv2d(256, 1024, kernel_size=(1, 1), stride=(1, 1), bias=False)
        (bn3): BatchNorm2d(1024, eps=1e-05, momentum=0.1, affine=True, track_running_stats=True)
        (relu): ReLU(inplace=True)
      )
      (4): Bottleneck(
        (conv1): Conv2d(1024, 256, kernel_size=(1, 1), stride=(1, 1), bias=False)
        (bn1): BatchNorm2d(256, eps=1e-05, momentum=0.1, affine=True, track_running_stats=True)
        (conv2): Conv2d(256, 256, kernel_size=(3, 3), stride=(1, 1), padding=(1, 1), bias=False)
        (bn2): BatchNorm2d(256, eps=1e-05, momentum=0.1, affine=True, track_running_stats=True)
        (conv3): Conv2d(256, 1024, kernel_size=(1, 1), stride=(1, 1), bias=False)
        (bn3): BatchNorm2d(1024, eps=1e-05, momentum=0.1, affine=True, track_running_stats=True)
        (relu): ReLU(inplace=True)
      )
      (5): Bottleneck(
        (conv1): Conv2d(1024, 256, kernel_size=(1, 1), stride=(1, 1), bias=False)
        (bn1): BatchNorm2d(256, eps=1e-05, momentum=0.1, affine=True, track_running_stats=True)
        (conv2): Conv2d(256, 256, kernel_size=(3, 3), stride=(1, 1), padding=(1, 1), bias=False)
        (bn2): BatchNorm2d(256, eps=1e-05, momentum=0.1, affine=True, track_running_stats=True)
        (conv3): Conv2d(256, 1024, kernel_size=(1, 1), stride=(1, 1), bias=False)
        (bn3): BatchNorm2d(1024, eps=1e-05, momentum=0.1, affine=True, track_running_stats=True)
        (relu): ReLU(inplace=True)
      )
    )
    (layer4): Sequential(
      (0): Bottleneck(
        (conv1): Conv2d(1024, 512, kernel_size=(1, 1), stride=(1, 1), bias=False)
        (bn1): BatchNorm2d(512, eps=1e-05, momentum=0.1, affine=True, track_running_stats=True)
        (conv2): Conv2d(512, 512, kernel_size=(3, 3), stride=(2, 2), padding=(1, 1), bias=False)
        (bn2): BatchNorm2d(512, eps=1e-05, momentum=0.1, affine=True, track_running_stats=True)
        (conv3): Conv2d(512, 2048, kernel_size=(1, 1), stride=(1, 1), bias=False)
        (bn3): BatchNorm2d(2048, eps=1e-05, momentum=0.1, affine=True, track_running_stats=True)
        (relu): ReLU(inplace=True)
        (downsample): Sequential(
          (0): Conv2d(1024, 2048, kernel_size=(1, 1), stride=(2, 2), bias=False)
          (1): BatchNorm2d(2048, eps=1e-05, momentum=0.1, affine=True, track_running_stats=True)
        )
      )
      (1): Bottleneck(
        (conv1): Conv2d(2048, 512, kernel_size=(1, 1), stride=(1, 1), bias=False)
        (bn1): BatchNorm2d(512, eps=1e-05, momentum=0.1, affine=True, track_running_stats=True)
        (conv2): Conv2d(512, 512, kernel_size=(3, 3), stride=(1, 1), padding=(1, 1), bias=False)
        (bn2): BatchNorm2d(512, eps=1e-05, momentum=0.1, affine=True, track_running_stats=True)
        (conv3): Conv2d(512, 2048, kernel_size=(1, 1), stride=(1, 1), bias=False)
        (bn3): BatchNorm2d(2048, eps=1e-05, momentum=0.1, affine=True, track_running_stats=True)
        (relu): ReLU(inplace=True)
      )
      (2): Bottleneck(
        (conv1): Conv2d(2048, 512, kernel_size=(1, 1), stride=(1, 1), bias=False)
        (bn1): BatchNorm2d(512, eps=1e-05, momentum=0.1, affine=True, track_running_stats=True)
        (conv2): Conv2d(512, 512, kernel_size=(3, 3), stride=(1, 1), padding=(1, 1), bias=False)
        (bn2): BatchNorm2d(512, eps=1e-05, momentum=0.1, affine=True, track_running_stats=True)
        (conv3): Conv2d(512, 2048, kernel_size=(1, 1), stride=(1, 1), bias=False)
        (bn3): BatchNorm2d(2048, eps=1e-05, momentum=0.1, affine=True, track_running_stats=True)
        (relu): ReLU(inplace=True)
      )
    )
    (avgpool): AdaptiveAvgPool2d(output_size=(1, 1))
    (fc): Linear(in_features=2048, out_features=100, bias=True)
  )
  (graphnet): GraphNet(
    (gconv1): GraphConv(
      (fc): Linear(in_features=2050, out_features=128, bias=True)
      (activation): ReLU(inplace=True)
    )
    (gconv2): GraphConv(
      (fc): Linear(in_features=128, out_features=16, bias=True)
      (activation): ReLU(inplace=True)
    )
    (gconv3): GraphConv(
      (fc): Linear(in_features=16, out_features=2, bias=True)
    )
  )
  (graphunet): GraphUNet(
    (gconv1): GraphConv(
      (fc): Linear(in_features=2, out_features=4, bias=True)
      (activation): ReLU(inplace=True)
    )
    (pool1): GraphPool(
      (fc): Linear(in_features=50, out_features=25, bias=True)
    )
    (gconv2): GraphConv(
      (fc): Linear(in_features=4, out_features=8, bias=True)
      (activation): ReLU(inplace=True)
    )
    (pool2): GraphPool(
      (fc): Linear(in_features=25, out_features=12, bias=True)
    )
    (gconv3): GraphConv(
      (fc): Linear(in_features=8, out_features=16, bias=True)
      (activation): ReLU(inplace=True)
    )
    (pool3): GraphPool(
      (fc): Linear(in_features=12, out_features=6, bias=True)
    )
    (gconv4): GraphConv(
      (fc): Linear(in_features=16, out_features=32, bias=True)
      (activation): ReLU(inplace=True)
    )
    (pool4): GraphPool(
      (fc): Linear(in_features=6, out_features=3, bias=True)
    )
    (gconv5): GraphConv(
      (fc): Linear(in_features=32, out_features=64, bias=True)
      (activation): ReLU(inplace=True)
    )
    (pool5): GraphPool(
      (fc): Linear(in_features=3, out_features=1, bias=True)
    )
    (fc1): Linear(in_features=64, out_features=20, bias=True)
    (fc2): Linear(in_features=20, out_features=64, bias=True)
    (unpool6): GraphUnpool(
      (fc): Linear(in_features=1, out_features=3, bias=True)
    )
    (gconv6): GraphConv(
      (fc): Linear(in_features=128, out_features=32, bias=True)
      (activation): ReLU(inplace=True)
    )
    (unpool7): GraphUnpool(
      (fc): Linear(in_features=3, out_features=6, bias=True)
    )
    (gconv7): GraphConv(
      (fc): Linear(in_features=64, out_features=16, bias=True)
      (activation): ReLU(inplace=True)
    )
    (unpool8): GraphUnpool(
      (fc): Linear(in_features=6, out_features=12, bias=True)
    )
    (gconv8): GraphConv(
      (fc): Linear(in_features=32, out_features=8, bias=True)
      (activation): ReLU(inplace=True)
    )
    (unpool9): GraphUnpool(
      (fc): Linear(in_features=12, out_features=25, bias=True)
    )
    (gconv9): GraphConv(
      (fc): Linear(in_features=16, out_features=4, bias=True)
      (activation): ReLU(inplace=True)
    )
    (unpool10): GraphUnpool(
      (fc): Linear(in_features=25, out_features=50, bias=True)
    )
    (gconv10): GraphConv(
      (fc): Linear(in_features=8, out_features=3, bias=True)
    )
    (ReLU): ReLU()
  )
  (handMeshgen_left): MeshGen(
    (unpool1): GraphUnpool(
      (fc): Linear(in_features=50, out_features=48, bias=True)
    )
    (gconv11): GraphConv(
      (fc): Linear(in_features=2053, out_features=512, bias=True)
      (activation): ReLU(inplace=True)
    )
    (gconv12): GraphConv(
      (fc): Linear(in_features=512, out_features=256, bias=True)
      (activation): ReLU(inplace=True)
    )
    (unpool2): GraphUnpool(
      (fc): Linear(in_features=48, out_features=194, bias=True)
    )
    (gconv21): GraphConv(
      (fc): Linear(in_features=256, out_features=128, bias=True)
      (activation): ReLU(inplace=True)
    )
    (gconv22): GraphConv(
      (fc): Linear(in_features=128, out_features=64, bias=True)
      (activation): ReLU(inplace=True)
    )
    (unpool3): GraphUnpool(
      (fc): Linear(in_features=194, out_features=778, bias=True)
    )
    (gconv31): GraphConv(
      (fc): Linear(in_features=64, out_features=16, bias=True)
      (activation): ReLU(inplace=True)
    )
    (gconv32): GraphConv(
      (fc): Linear(in_features=16, out_features=3, bias=True)
    )
  )
  (handMeshgen_right): MeshGen(
    (unpool1): GraphUnpool(
      (fc): Linear(in_features=50, out_features=48, bias=True)
    )
    (gconv11): GraphConv(
      (fc): Linear(in_features=2053, out_features=512, bias=True)
      (activation): ReLU(inplace=True)
    )
    (gconv12): GraphConv(
      (fc): Linear(in_features=512, out_features=256, bias=True)
      (activation): ReLU(inplace=True)
    )
    (unpool2): GraphUnpool(
      (fc): Linear(in_features=48, out_features=194, bias=True)
    )
    (gconv21): GraphConv(
      (fc): Linear(in_features=256, out_features=128, bias=True)
      (activation): ReLU(inplace=True)
    )
    (gconv22): GraphConv(
      (fc): Linear(in_features=128, out_features=64, bias=True)
      (activation): ReLU(inplace=True)
    )
    (unpool3): GraphUnpool(
      (fc): Linear(in_features=194, out_features=778, bias=True)
    )
    (gconv31): GraphConv(
      (fc): Linear(in_features=64, out_features=16, bias=True)
      (activation): ReLU(inplace=True)
    )
    (gconv32): GraphConv(
      (fc): Linear(in_features=16, out_features=3, bias=True)
    )
  )
)
second condition is true
Begin training the network...
0
[1,   100] loss: 2259.45239
[1,   200] loss: 263.04660
[1,   300] loss: 215.89459
[1,   400] loss: 213.22498
[1,   500] loss: 211.02135
[1,   600] loss: 205.13193
[1,   700] loss: 201.14317
[1,   800] loss: 210.88493
[1,   900] loss: 200.26740
[1,  1000] loss: 212.11160
[1,  1100] loss: 210.19705
…
